…
60', '61', '62', '63', '64', '65', '66', '67', '68', '69', '7', '70', '71', '72', '73', '74', '75', '76', '77', '78', '79', '8', '80', '81', '82', '83', '84', '85', '86', '87', '88', '89', '9', '90', '91', '92', '93', '94', '95', '96', '97', '98', '99']
****************
__________________________________________________________________________________________________
Layer (type)                    Output Shape         Param #     Connected to                     
==================================================================================================
data (InputLayer)               (None, 480, 480, 3)  0                                            
__________________________________________________________________________________________________
conv1_zeropadding (ZeroPadding2 (None, 486, 486, 3)  0           data[0][0]                       
__________________________________________________________________________________________________
conv1 (Conv2D)                  (None, 240, 240, 64) 9408        conv1_zeropadding[0][0]          
__________________________________________________________________________________________________
bn_conv1 (BatchNormalization)   (None, 240, 240, 64) 256         conv1[0][0]                      
__________________________________________________________________________________________________
scale_conv1 (Scale)             (None, 240, 240, 64) 128         bn_conv1[0][0]                   
__________________________________________________________________________________________________
conv1_relu (Activation)         (None, 240, 240, 64) 0           scale_conv1[0][0]                
__________________________________________________________________________________________________
pool1 (MaxPooling2D)            (None, 119, 119, 64) 0           conv1_relu[0][0]                 
__________________________________________________________________________________________________
res2a_branch2a (Conv2D)         (None, 119, 119, 64) 4096        pool1[0][0]                      
__________________________________________________________________________________________________
bn2a_branch2a (BatchNormalizati (None, 119, 119, 64) 256         res2a_branch2a[0][0]             
__________________________________________________________________________________________________
scale2a_branch2a (Scale)        (None, 119, 119, 64) 128         bn2a_branch2a[0][0]              
__________________________________________________________________________________________________
res2a_branch2a_relu (Activation (None, 119, 119, 64) 0           scale2a_branch2a[0][0]           
__________________________________________________________________________________________________
res2a_branch2b_zeropadding (Zer (None, 121, 121, 64) 0           res2a_branch2a_relu[0][0]        
__________________________________________________________________________________________________
res2a_branch2b (Conv2D)         (None, 119, 119, 64) 36864       res2a_branch2b_zeropadding[0][0] 
__________________________________________________________________________________________________
bn2a_branch2b (BatchNormalizati (None, 119, 119, 64) 256         res2a_branch2b[0][0]             
__________________________________________________________________________________________________
scale2a_branch2b (Scale)        (None, 119, 119, 64) 128         bn2a_branch2b[0][0]              
__________________________________________________________________________________________________
res2a_branch2b_relu (Activation (None, 119, 119, 64) 0           scale2a_branch2b[0][0]           
__________________________________________________________________________________________________
res2a_branch2c (Conv2D)         (None, 119, 119, 256 16384       res2a_branch2b_relu[0][0]        
__________________________________________________________________________________________________
res2a_branch1 (Conv2D)          (None, 119, 119, 256 16384       pool1[0][0]                      
…
__________________________________________________________________________________________________
res2a (Add)                     (None, 119, 119, 256 0           scale2a_branch2c[0][0]           
                                                                 scale2a_branch1[0][0]            
__________________________________________________________________________________________________
res2a_relu (Activation)         (None, 119, 119, 256 0           res2a[0][0]                      
__________________________________________________________________________________________________
res2b_branch2a (Conv2D)         (None, 119, 119, 64) 16384       res2a_relu[0][0]                 
__________________________________________________________________________________________________
bn2b_branch2a (BatchNormalizati (None, 119, 119, 64) 256         res2b_branch2a[0][0]             
__________________________________________________________________________________________________
scale2b_branch2a (Scale)        (None, 119, 119, 64) 128         bn2b_branch2a[0][0]              
__________________________________________________________________________________________________
res2b_branch2a_relu (Activation (None, 119, 119, 64) 0           scale2b_branch2a[0][0]           
__________________________________________________________________________________________________
res2b_branch2b_zeropadding (Zer (None, 121, 121, 64) 0           res2b_branch2a_relu[0][0]        
__________________________________________________________________________________________________
res2b_branch2b (Conv2D)         (None, 119, 119, 64) 36864       res2b_branch2b_zeropadding[0][0] 
__________________________________________________________________________________________________
bn2b_branch2b (BatchNormalizati (None, 119, 119, 64) 256         res2b_branch2b[0][0]             
__________________________________________________________________________________________________
scale2b_branch2b (Scale)        (None, 119, 119, 64) 128         bn2b_branch2b[0][0]              
__________________________________________________________________________________________________
res2b_branch2b_relu (Activation (None, 119, 119, 64) 0           scale2b_branch2b[0][0]           
__________________________________________________________________________________________________
res2b_branch2c (Conv2D)         (None, 119, 119, 256 16384       res2b_branch2b_relu[0][0]        
__________________________________________________________________________________________________
bn2b_branch2c (BatchNormalizati (None, 119, 119, 256 1024        res2b_branch2c[0][0]             
…
__________________________________________________________________________________________________
res2c (Add)                     (None, 119, 119, 256 0           scale2c_branch2c[0][0]           
                                                                 res2b_relu[0][0]                 
__________________________________________________________________________________________________
res2c_relu (Activation)         (None, 119, 119, 256 0           res2c[0][0]                      
__________________________________________________________________________________________________
res3a_branch2a (Conv2D)         (None, 60, 60, 128)  32768       res2c_relu[0][0]                 
__________________________________________________________________________________________________
bn3a_branch2a (BatchNormalizati (None, 60, 60, 128)  512         res3a_branch2a[0][0]             
__________________________________________________________________________________________________
scale3a_branch2a (Scale)        (None, 60, 60, 128)  256         bn3a_branch2a[0][0]              
__________________________________________________________________________________________________
res3a_branch2a_relu (Activation (None, 60, 60, 128)  0           scale3a_branch2a[0][0]           
__________________________________________________________________________________________________
res3a_branch2b_zeropadding (Zer (None, 62, 62, 128)  0           res3a_branch2a_relu[0][0]        
__________________________________________________________________________________________________
res3a_branch2b (Conv2D)         (None, 60, 60, 128)  147456      res3a_branch2b_zeropadding[0][0] 
__________________________________________________________________________________________________
bn3a_branch2b (BatchNormalizati (None, 60, 60, 128)  512         res3a_branch2b[0][0]             
__________________________________________________________________________________________________
scale3a_branch2b (Scale)        (None, 60, 60, 128)  256         bn3a_branch2b[0][0]              
__________________________________________________________________________________________________
res3a_branch2b_relu (Activation (None, 60, 60, 128)  0           scale3a_branch2b[0][0]           
__________________________________________________________________________________________________
res3a_branch2c (Conv2D)         (None, 60, 60, 512)  65536       res3a_branch2b_relu[0][0]        
__________________________________________________________________________________________________
res3a_branch1 (Conv2D)          (None, 60, 60, 512)  131072      res2c_relu[0][0]                 
__________________________________________________________________________________________________
bn3a_branch2c (BatchNormalizati (None, 60, 60, 512)  2048        res3a_branch2c[0][0]             
__________________________________________________________________________________________________
bn3a_branch1 (BatchNormalizatio (None, 60, 60, 512)  2048        res3a_branch1[0][0]              
__________________________________________________________________________________________________
scale3a_branch2c (Scale)        (None, 60, 60, 512)  1024        bn3a_branch2c[0][0]              
__________________________________________________________________________________________________
scale3a_branch1 (Scale)         (None, 60, 60, 512)  1024        bn3a_branch1[0][0]               
__________________________________________________________________________________________________
res3a (Add)                     (None, 60, 60, 512)  0           scale3a_branch2c[0][0]           
                                                                 scale3a_branch1[0][0]            
__________________________________________________________________________________________________
res3a_relu (Activation)         (None, 60, 60, 512)  0           res3a[0][0]                      
__________________________________________________________________________________________________
res3b1_branch2a (Conv2D)        (None, 60, 60, 128)  65536       res3a_relu[0][0]                 
__________________________________________________________________________________________________
bn3b1_branch2a (BatchNormalizat (None, 60, 60, 128)  512         res3b1_branch2a[0][0]            
__________________________________________________________________________________________________
scale3b1_branch2a (Scale)       (None, 60, 60, 128)  256         bn3b1_branch2a[0][0]             
__________________________________________________________________________________________________
res3b1_branch2a_relu (Activatio (None, 60, 60, 128)  0           scale3b1_branch2a[0][0]          
__________________________________________________________________________________________________
res3b1_branch2b_zeropadding (Ze (None, 62, 62, 128)  0           res3b1_branch2a_relu[0][0]       
__________________________________________________________________________________________________
res3b1_branch2b (Conv2D)        (None, 60, 60, 128)  147456      res3b1_branch2b_zeropadding[0][0]
__________________________________________________________________________________________________
bn3b1_branch2b (BatchNormalizat (None, 60, 60, 128)  512         res3b1_branch2b[0][0]            
__________________________________________________________________________________________________
scale3b1_branch2b (Scale)       (None, 60, 60, 128)  256         bn3b1_branch2b[0][0]             
__________________________________________________________________________________________________
res3b1_branch2b_relu (Activatio (None, 60, 60, 128)  0           scale3b1_branch2b[0][0]          
__________________________________________________________________________________________________
res3b1_branch2c (Conv2D)        (None, 60, 60, 512)  65536       res3b1_branch2b_relu[0][0]       
__________________________________________________________________________________________________
bn3b1_branch2c (BatchNormalizat (None, 60, 60, 512)  2048        res3b1_branch2c[0][0]            
__________________________________________________________________________________________________
scale3b1_branch2c (Scale)       (None, 60, 60, 512)  1024        bn3b1_branch2c[0][0]             
__________________________________________________________________________________________________
res3b1 (Add)                    (None, 60, 60, 512)  0           scale3b1_branch2c[0][0]          
                                                                 res3a_relu[0][0]                 
__________________________________________________________________________________________________
res3b1_relu (Activation)        (None, 60, 60, 512)  0           res3b1[0][0]                     
__________________________________________________________________________________________________
res3b2_branch2a (Conv2D)        (None, 60, 60, 128)  65536       res3b1_relu[0][0]                
__________________________________________________________________________________________________
bn3b2_branch2a (BatchNormalizat (None, 60, 60, 128)  512         res3b2_branch2a[0][0]            
__________________________________________________________________________________________________
scale3b2_branch2a (Scale)       (None, 60, 60, 128)  256         bn3b2_branch2a[0][0]             
__________________________________________________________________________________________________
res3b2_branch2a_relu (Activatio (None, 60, 60, 128)  0           scale3b2_branch2a[0][0]          
__________________________________________________________________________________________________
res3b2_branch2b_zeropadding (Ze (None, 62, 62, 128)  0           res3b2_branch2a_relu[0][0]       
__________________________________________________________________________________________________
res3b2_branch2b (Conv2D)        (None, 60, 60, 128)  147456      res3b2_branch2b_zeropadding[0][0]
__________________________________________________________________________________________________
bn3b2_branch2b (BatchNormalizat (None, 60, 60, 128)  512         res3b2_branch2b[0][0]            
__________________________________________________________________________________________________
scale3b2_branch2b (Scale)       (None, 60, 60, 128)  256         bn3b2_branch2b[0][0]             
__________________________________________________________________________________________________
res3b2_branch2b_relu (Activatio (None, 60, 60, 128)  0           scale3b2_branch2b[0][0]          
__________________________________________________________________________________________________
res3b2_branch2c (Conv2D)        (None, 60, 60, 512)  65536       res3b2_branch2b_relu[0][0]       
__________________________________________________________________________________________________
bn3b2_branch2c (BatchNormalizat (None, 60, 60, 512)  2048        res3b2_branch2c[0][0]            
__________________________________________________________________________________________________
scale3b2_branch2c (Scale)       (None, 60, 60, 512)  1024        bn3b2_branch2c[0][0]             
__________________________________________________________________________________________________
res3b2 (Add)                    (None, 60, 60, 512)  0           scale3b2_branch2c[0][0]          
                                                                 res3b1_relu[0][0]                
__________________________________________________________________________________________________
res3b2_relu (Activation)        (None, 60, 60, 512)  0           res3b2[0][0]                     
__________________________________________________________________________________________________
res3b3_branch2a (Conv2D)        (None, 60, 60, 128)  65536       res3b2_relu[0][0]                
__________________________________________________________________________________________________
bn3b3_branch2a (BatchNormalizat (None, 60, 60, 128)  512         res3b3_branch2a[0][0]            
__________________________________________________________________________________________________
scale3b3_branch2a (Scale)       (None, 60, 60, 128)  256         bn3b3_branch2a[0][0]             
__________________________________________________________________________________________________
res3b3_branch2a_relu (Activatio (None, 60, 60, 128)  0           scale3b3_branch2a[0][0]          
__________________________________________________________________________________________________
res3b3_branch2b_zeropadding (Ze (None, 62, 62, 128)  0           res3b3_branch2a_relu[0][0]       
__________________________________________________________________________________________________
res3b3_branch2b (Conv2D)        (None, 60, 60, 128)  147456      res3b3_branch2b_zeropadding[0][0]
__________________________________________________________________________________________________
bn3b3_branch2b (BatchNormalizat (None, 60, 60, 128)  512         res3b3_branch2b[0][0]            
__________________________________________________________________________________________________
scale3b3_branch2b (Scale)       (None, 60, 60, 128)  256         bn3b3_branch2b[0][0]             
__________________________________________________________________________________________________
res3b3_branch2b_relu (Activatio (None, 60, 60, 128)  0           scale3b3_branch2b[0][0]          
__________________________________________________________________________________________________
res3b3_branch2c (Conv2D)        (None, 60, 60, 512)  65536       res3b3_branch2b_relu[0][0]       
__________________________________________________________________________________________________
bn3b3_branch2c (BatchNormalizat (None, 60, 60, 512)  2048        res3b3_branch2c[0][0]            
__________________________________________________________________________________________________
scale3b3_branch2c (Scale)       (None, 60, 60, 512)  1024        bn3b3_branch2c[0][0]             
__________________________________________________________________________________________________
res3b3 (Add)                    (None, 60, 60, 512)  0           scale3b3_branch2c[0][0]          
                                                                 res3b2_relu[0][0]                
__________________________________________________________________________________________________
res3b3_relu (Activation)        (None, 60, 60, 512)  0           res3b3[0][0]                     
__________________________________________________________________________________________________
res4a_branch2a (Conv2D)         (None, 30, 30, 256)  131072      res3b3_relu[0][0]                
__________________________________________________________________________________________________
bn4a_branch2a (BatchNormalizati (None, 30, 30, 256)  1024        res4a_branch2a[0][0]             
__________________________________________________________________________________________________
scale4a_branch2a (Scale)        (None, 30, 30, 256)  512         bn4a_branch2a[0][0]              
__________________________________________________________________________________________________
res4a_branch2a_relu (Activation (None, 30, 30, 256)  0           scale4a_branch2a[0][0]           
__________________________________________________________________________________________________
res4a_branch2b_zeropadding (Zer (None, 32, 32, 256)  0           res4a_branch2a_relu[0][0]        
__________________________________________________________________________________________________
res4a_branch2b (Conv2D)         (None, 30, 30, 256)  589824      res4a_branch2b_zeropadding[0][0] 
__________________________________________________________________________________________________
bn4a_branch2b (BatchNormalizati (None, 30, 30, 256)  1024        res4a_branch2b[0][0]             
__________________________________________________________________________________________________
scale4a_branch2b (Scale)        (None, 30, 30, 256)  512         bn4a_branch2b[0][0]              
__________________________________________________________________________________________________
res4a_branch2b_relu (Activation (None, 30, 30, 256)  0           scale4a_branch2b[0][0]           
__________________________________________________________________________________________________
res4a_branch2c (Conv2D)         (None, 30, 30, 1024) 262144      res4a_branch2b_relu[0][0]        
__________________________________________________________________________________________________
res4a_branch1 (Conv2D)          (None, 30, 30, 1024) 524288      res3b3_relu[0][0]                
__________________________________________________________________________________________________
bn4a_branch2c (BatchNormalizati (None, 30, 30, 1024) 4096        res4a_branch2c[0][0]             
__________________________________________________________________________________________________
bn4a_branch1 (BatchNormalizatio (None, 30, 30, 1024) 4096        res4a_branch1[0][0]              
__________________________________________________________________________________________________
scale4a_branch2c (Scale)        (None, 30, 30, 1024) 2048        bn4a_branch2c[0][0]              
__________________________________________________________________________________________________
scale4a_branch1 (Scale)         (None, 30, 30, 1024) 2048        bn4a_branch1[0][0]               
__________________________________________________________________________________________________
res4a (Add)                     (None, 30, 30, 1024) 0           scale4a_branch2c[0][0]           
                                                                 scale4a_branch1[0][0]            
__________________________________________________________________________________________________
res4a_relu (Activation)         (None, 30, 30, 1024) 0           res4a[0][0]                      
__________________________________________________________________________________________________
res4b1_branch2a (Conv2D)        (None, 30, 30, 256)  262144      res4a_relu[0][0]                 
__________________________________________________________________________________________________
bn4b1_branch2a (BatchNormalizat (None, 30, 30, 256)  1024        res4b1_branch2a[0][0]            
__________________________________________________________________________________________________
scale4b1_branch2a (Scale)       (None, 30, 30, 256)  512         bn4b1_branch2a[0][0]             
__________________________________________________________________________________________________
res4b1_branch2a_relu (Activatio (None, 30, 30, 256)  0           scale4b1_branch2a[0][0]          
__________________________________________________________________________________________________
res4b1_branch2b_zeropadding (Ze (None, 32, 32, 256)  0           res4b1_branch2a_relu[0][0]       
__________________________________________________________________________________________________
res4b1_branch2b (Conv2D)        (None, 30, 30, 256)  589824      res4b1_branch2b_zeropadding[0][0]
__________________________________________________________________________________________________
bn4b1_branch2b (BatchNormalizat (None, 30, 30, 256)  1024        res4b1_branch2b[0][0]            
__________________________________________________________________________________________________
scale4b1_branch2b (Scale)       (None, 30, 30, 256)  512         bn4b1_branch2b[0][0]             
__________________________________________________________________________________________________
res4b1_branch2b_relu (Activatio (None, 30, 30, 256)  0           scale4b1_branch2b[0][0]          
__________________________________________________________________________________________________
res4b1_branch2c (Conv2D)        (None, 30, 30, 1024) 262144      res4b1_branch2b_relu[0][0]       
__________________________________________________________________________________________________
bn4b1_branch2c (BatchNormalizat (None, 30, 30, 1024) 4096        res4b1_branch2c[0][0]            
__________________________________________________________________________________________________
scale4b1_branch2c (Scale)       (None, 30, 30, 1024) 2048        bn4b1_branch2c[0][0]             
__________________________________________________________________________________________________
res4b1 (Add)                    (None, 30, 30, 1024) 0           scale4b1_branch2c[0][0]          
                                                                 res4a_relu[0][0]                 
__________________________________________________________________________________________________
res4b1_relu (Activation)        (None, 30, 30, 1024) 0           res4b1[0][0]                     
__________________________________________________________________________________________________
res4b2_branch2a (Conv2D)        (None, 30, 30, 256)  262144      res4b1_relu[0][0]                
__________________________________________________________________________________________________
bn4b2_branch2a (BatchNormalizat (None, 30, 30, 256)  1024        res4b2_branch2a[0][0]            
__________________________________________________________________________________________________
scale4b2_branch2a (Scale)       (None, 30, 30, 256)  512         bn4b2_branch2a[0][0]             
__________________________________________________________________________________________________
res4b2_branch2a_relu (Activatio (None, 30, 30, 256)  0           scale4b2_branch2a[0][0]          
__________________________________________________________________________________________________
res4b2_branch2b_zeropadding (Ze (None, 32, 32, 256)  0           res4b2_branch2a_relu[0][0]       
__________________________________________________________________________________________________
res4b2_branch2b (Conv2D)        (None, 30, 30, 256)  589824      res4b2_branch2b_zeropadding[0][0]
__________________________________________________________________________________________________
bn4b2_branch2b (BatchNormalizat (None, 30, 30, 256)  1024        res4b2_branch2b[0][0]            
__________________________________________________________________________________________________
scale4b2_branch2b (Scale)       (None, 30, 30, 256)  512         bn4b2_branch2b[0][0]             
__________________________________________________________________________________________________
res4b2_branch2b_relu (Activatio (None, 30, 30, 256)  0           scale4b2_branch2b[0][0]          
__________________________________________________________________________________________________
res4b2_branch2c (Conv2D)        (None, 30, 30, 1024) 262144      res4b2_branch2b_relu[0][0]       
__________________________________________________________________________________________________
bn4b2_branch2c (BatchNormalizat (None, 30, 30, 1024) 4096        res4b2_branch2c[0][0]            
__________________________________________________________________________________________________
scale4b2_branch2c (Scale)       (None, 30, 30, 1024) 2048        bn4b2_branch2c[0][0]             
__________________________________________________________________________________________________
res4b2 (Add)                    (None, 30, 30, 1024) 0           scale4b2_branch2c[0][0]          
                                                                 res4b1_relu[0][0]                
__________________________________________________________________________________________________
res4b2_relu (Activation)        (None, 30, 30, 1024) 0           res4b2[0][0]                     
__________________________________________________________________________________________________
res4b3_branch2a (Conv2D)        (None, 30, 30, 256)  262144      res4b2_relu[0][0]                
__________________________________________________________________________________________________
bn4b3_branch2a (BatchNormalizat (None, 30, 30, 256)  1024        res4b3_branch2a[0][0]            
__________________________________________________________________________________________________
scale4b3_branch2a (Scale)       (None, 30, 30, 256)  512         bn4b3_branch2a[0][0]             
__________________________________________________________________________________________________
res4b3_branch2a_relu (Activatio (None, 30, 30, 256)  0           scale4b3_branch2a[0][0]          
__________________________________________________________________________________________________
res4b3_branch2b_zeropadding (Ze (None, 32, 32, 256)  0           res4b3_branch2a_relu[0][0]       
__________________________________________________________________________________________________
res4b3_branch2b (Conv2D)        (None, 30, 30, 256)  589824      res4b3_branch2b_zeropadding[0][0]
__________________________________________________________________________________________________
bn4b3_branch2b (BatchNormalizat (None, 30, 30, 256)  1024        res4b3_branch2b[0][0]            
__________________________________________________________________________________________________
scale4b3_branch2b (Scale)       (None, 30, 30, 256)  512         bn4b3_branch2b[0][0]             
__________________________________________________________________________________________________
res4b3_branch2b_relu (Activatio (None, 30, 30, 256)  0           scale4b3_branch2b[0][0]          
__________________________________________________________________________________________________
res4b3_branch2c (Conv2D)        (None, 30, 30, 1024) 262144      res4b3_branch2b_relu[0][0]       
__________________________________________________________________________________________________
bn4b3_branch2c (BatchNormalizat (None, 30, 30, 1024) 4096        res4b3_branch2c[0][0]            
__________________________________________________________________________________________________
scale4b3_branch2c (Scale)       (None, 30, 30, 1024) 2048        bn4b3_branch2c[0][0]             
__________________________________________________________________________________________________
res4b3 (Add)                    (None, 30, 30, 1024) 0           scale4b3_branch2c[0][0]          
                                                                 res4b2_relu[0][0]                
__________________________________________________________________________________________________
res4b3_relu (Activation)        (None, 30, 30, 1024) 0           res4b3[0][0]                     
__________________________________________________________________________________________________
res4b4_branch2a (Conv2D)        (None, 30, 30, 256)  262144      res4b3_relu[0][0]                
__________________________________________________________________________________________________
bn4b4_branch2a (BatchNormalizat (None, 30, 30, 256)  1024        res4b4_branch2a[0][0]            
__________________________________________________________________________________________________
scale4b4_branch2a (Scale)       (None, 30, 30, 256)  512         bn4b4_branch2a[0][0]             
__________________________________________________________________________________________________
res4b4_branch2a_relu (Activatio (None, 30, 30, 256)  0           scale4b4_branch2a[0][0]          
__________________________________________________________________________________________________
res4b4_branch2b_zeropadding (Ze (None, 32, 32, 256)  0           res4b4_branch2a_relu[0][0]       
__________________________________________________________________________________________________
res4b4_branch2b (Conv2D)        (None, 30, 30, 256)  589824      res4b4_branch2b_zeropadding[0][0]
__________________________________________________________________________________________________
bn4b4_branch2b (BatchNormalizat (None, 30, 30, 256)  1024        res4b4_branch2b[0][0]            
__________________________________________________________________________________________________
scale4b4_branch2b (Scale)       (None, 30, 30, 256)  512         bn4b4_branch2b[0][0]             
__________________________________________________________________________________________________
res4b4_branch2b_relu (Activatio (None, 30, 30, 256)  0           scale4b4_branch2b[0][0]          
__________________________________________________________________________________________________
res4b4_branch2c (Conv2D)        (None, 30, 30, 1024) 262144      res4b4_branch2b_relu[0][0]       
__________________________________________________________________________________________________
bn4b4_branch2c (BatchNormalizat (None, 30, 30, 1024) 4096        res4b4_branch2c[0][0]            
__________________________________________________________________________________________________
scale4b4_branch2c (Scale)       (None, 30, 30, 1024) 2048        bn4b4_branch2c[0][0]             
__________________________________________________________________________________________________
res4b4 (Add)                    (None, 30, 30, 1024) 0           scale4b4_branch2c[0][0]          
                                                                 res4b3_relu[0][0]                
__________________________________________________________________________________________________
res4b4_relu (Activation)        (None, 30, 30, 1024) 0           res4b4[0][0]                     
__________________________________________________________________________________________________
res4b5_branch2a (Conv2D)        (None, 30, 30, 256)  262144      res4b4_relu[0][0]                
__________________________________________________________________________________________________
bn4b5_branch2a (BatchNormalizat (None, 30, 30, 256)  1024        res4b5_branch2a[0][0]            
__________________________________________________________________________________________________
scale4b5_branch2a (Scale)       (None, 30, 30, 256)  512         bn4b5_branch2a[0][0]             
__________________________________________________________________________________________________
res4b5_branch2a_relu (Activatio (None, 30, 30, 256)  0           scale4b5_branch2a[0][0]          
__________________________________________________________________________________________________
res4b5_branch2b_zeropadding (Ze (None, 32, 32, 256)  0           res4b5_branch2a_relu[0][0]       
__________________________________________________________________________________________________
res4b5_branch2b (Conv2D)        (None, 30, 30, 256)  589824      res4b5_branch2b_zeropadding[0][0]
__________________________________________________________________________________________________
bn4b5_branch2b (BatchNormalizat (None, 30, 30, 256)  1024        res4b5_branch2b[0][0]            
__________________________________________________________________________________________________
scale4b5_branch2b (Scale)       (None, 30, 30, 256)  512         bn4b5_branch2b[0][0]             
__________________________________________________________________________________________________
res4b5_branch2b_relu (Activatio (None, 30, 30, 256)  0           scale4b5_branch2b[0][0]          
__________________________________________________________________________________________________
res4b5_branch2c (Conv2D)        (None, 30, 30, 1024) 262144      res4b5_branch2b_relu[0][0]       
__________________________________________________________________________________________________
bn4b5_branch2c (BatchNormalizat (None, 30, 30, 1024) 4096        res4b5_branch2c[0][0]            
__________________________________________________________________________________________________
scale4b5_branch2c (Scale)       (None, 30, 30, 1024) 2048        bn4b5_branch2c[0][0]             
__________________________________________________________________________________________________
res4b5 (Add)                    (None, 30, 30, 1024) 0           scale4b5_branch2c[0][0]          
                                                                 res4b4_relu[0][0]                
__________________________________________________________________________________________________
res4b5_relu (Activation)        (None, 30, 30, 1024) 0           res4b5[0][0]                     
__________________________________________________________________________________________________
res4b6_branch2a (Conv2D)        (None, 30, 30, 256)  262144      res4b5_relu[0][0]                
__________________________________________________________________________________________________
bn4b6_branch2a (BatchNormalizat (None, 30, 30, 256)  1024        res4b6_branch2a[0][0]            
__________________________________________________________________________________________________
scale4b6_branch2a (Scale)       (None, 30, 30, 256)  512         bn4b6_branch2a[0][0]             
__________________________________________________________________________________________________
res4b6_branch2a_relu (Activatio (None, 30, 30, 256)  0           scale4b6_branch2a[0][0]          
__________________________________________________________________________________________________
res4b6_branch2b_zeropadding (Ze (None, 32, 32, 256)  0           res4b6_branch2a_relu[0][0]       
__________________________________________________________________________________________________
res4b6_branch2b (Conv2D)        (None, 30, 30, 256)  589824      res4b6_branch2b_zeropadding[0][0]
__________________________________________________________________________________________________
bn4b6_branch2b (BatchNormalizat (None, 30, 30, 256)  1024        res4b6_branch2b[0][0]            
__________________________________________________________________________________________________
scale4b6_branch2b (Scale)       (None, 30, 30, 256)  512         bn4b6_branch2b[0][0]             
__________________________________________________________________________________________________
res4b6_branch2b_relu (Activatio (None, 30, 30, 256)  0           scale4b6_branch2b[0][0]          
__________________________________________________________________________________________________
res4b6_branch2c (Conv2D)        (None, 30, 30, 1024) 262144      res4b6_branch2b_relu[0][0]       
__________________________________________________________________________________________________
bn4b6_branch2c (BatchNormalizat (None, 30, 30, 1024) 4096        res4b6_branch2c[0][0]            
__________________________________________________________________________________________________
scale4b6_branch2c (Scale)       (None, 30, 30, 1024) 2048        bn4b6_branch2c[0][0]             
__________________________________________________________________________________________________
res4b6 (Add)                    (None, 30, 30, 1024) 0           scale4b6_branch2c[0][0]          
                                                                 res4b5_relu[0][0]                
__________________________________________________________________________________________________
res4b6_relu (Activation)        (None, 30, 30, 1024) 0           res4b6[0][0]                     
__________________________________________________________________________________________________
res4b7_branch2a (Conv2D)        (None, 30, 30, 256)  262144      res4b6_relu[0][0]                
__________________________________________________________________________________________________
bn4b7_branch2a (BatchNormalizat (None, 30, 30, 256)  1024        res4b7_branch2a[0][0]            
__________________________________________________________________________________________________
scale4b7_branch2a (Scale)       (None, 30, 30, 256)  512         bn4b7_branch2a[0][0]             
__________________________________________________________________________________________________
res4b7_branch2a_relu (Activatio (None, 30, 30, 256)  0           scale4b7_branch2a[0][0]          
__________________________________________________________________________________________________
res4b7_branch2b_zeropadding (Ze (None, 32, 32, 256)  0           res4b7_branch2a_relu[0][0]       
__________________________________________________________________________________________________
res4b7_branch2b (Conv2D)        (None, 30, 30, 256)  589824      res4b7_branch2b_zeropadding[0][0]
__________________________________________________________________________________________________
bn4b7_branch2b (BatchNormalizat (None, 30, 30, 256)  1024        res4b7_branch2b[0][0]            
__________________________________________________________________________________________________
scale4b7_branch2b (Scale)       (None, 30, 30, 256)  512         bn4b7_branch2b[0][0]             
__________________________________________________________________________________________________
res4b7_branch2b_relu (Activatio (None, 30, 30, 256)  0           scale4b7_branch2b[0][0]          
__________________________________________________________________________________________________
res4b7_branch2c (Conv2D)        (None, 30, 30, 1024) 262144      res4b7_branch2b_relu[0][0]       
__________________________________________________________________________________________________
bn4b7_branch2c (BatchNormalizat (None, 30, 30, 1024) 4096        res4b7_branch2c[0][0]            
__________________________________________________________________________________________________
scale4b7_branch2c (Scale)       (None, 30, 30, 1024) 2048        bn4b7_branch2c[0][0]             
__________________________________________________________________________________________________
res4b7 (Add)                    (None, 30, 30, 1024) 0           scale4b7_branch2c[0][0]          
                                                                 res4b6_relu[0][0]                
__________________________________________________________________________________________________
res4b7_relu (Activation)        (None, 30, 30, 1024) 0           res4b7[0][0]                     
__________________________________________________________________________________________________
res4b8_branch2a (Conv2D)        (None, 30, 30, 256)  262144      res4b7_relu[0][0]                
__________________________________________________________________________________________________
bn4b8_branch2a (BatchNormalizat (None, 30, 30, 256)  1024        res4b8_branch2a[0][0]            
__________________________________________________________________________________________________
scale4b8_branch2a (Scale)       (None, 30, 30, 256)  512         bn4b8_branch2a[0][0]             
__________________________________________________________________________________________________
res4b8_branch2a_relu (Activatio (None, 30, 30, 256)  0           scale4b8_branch2a[0][0]          
__________________________________________________________________________________________________
res4b8_branch2b_zeropadding (Ze (None, 32, 32, 256)  0           res4b8_branch2a_relu[0][0]       
__________________________________________________________________________________________________
res4b8_branch2b (Conv2D)        (None, 30, 30, 256)  589824      res4b8_branch2b_zeropadding[0][0]
__________________________________________________________________________________________________
bn4b8_branch2b (BatchNormalizat (None, 30, 30, 256)  1024        res4b8_branch2b[0][0]            
__________________________________________________________________________________________________
scale4b8_branch2b (Scale)       (None, 30, 30, 256)  512         bn4b8_branch2b[0][0]             
__________________________________________________________________________________________________
res4b8_branch2b_relu (Activatio (None, 30, 30, 256)  0           scale4b8_branch2b[0][0]          
__________________________________________________________________________________________________
res4b8_branch2c (Conv2D)        (None, 30, 30, 1024) 262144      res4b8_branch2b_relu[0][0]       
__________________________________________________________________________________________________
bn4b8_branch2c (BatchNormalizat (None, 30, 30, 1024) 4096        res4b8_branch2c[0][0]            
__________________________________________________________________________________________________
scale4b8_branch2c (Scale)       (None, 30, 30, 1024) 2048        bn4b8_branch2c[0][0]             
__________________________________________________________________________________________________
res4b8 (Add)                    (None, 30, 30, 1024) 0           scale4b8_branch2c[0][0]          
                                                                 res4b7_relu[0][0]                
__________________________________________________________________________________________________
res4b8_relu (Activation)        (None, 30, 30, 1024) 0           res4b8[0][0]                     
__________________________________________________________________________________________________
res4b9_branch2a (Conv2D)        (None, 30, 30, 256)  262144      res4b8_relu[0][0]                
__________________________________________________________________________________________________
bn4b9_branch2a (BatchNormalizat (None, 30, 30, 256)  1024        res4b9_branch2a[0][0]            
__________________________________________________________________________________________________
scale4b9_branch2a (Scale)       (None, 30, 30, 256)  512         bn4b9_branch2a[0][0]             
__________________________________________________________________________________________________
res4b9_branch2a_relu (Activatio (None, 30, 30, 256)  0           scale4b9_branch2a[0][0]          
__________________________________________________________________________________________________
res4b9_branch2b_zeropadding (Ze (None, 32, 32, 256)  0           res4b9_branch2a_relu[0][0]       
__________________________________________________________________________________________________
res4b9_branch2b (Conv2D)        (None, 30, 30, 256)  589824      res4b9_branch2b_zeropadding[0][0]
__________________________________________________________________________________________________
bn4b9_branch2b (BatchNormalizat (None, 30, 30, 256)  1024        res4b9_branch2b[0][0]            
__________________________________________________________________________________________________
scale4b9_branch2b (Scale)       (None, 30, 30, 256)  512         bn4b9_branch2b[0][0]             
__________________________________________________________________________________________________
res4b9_branch2b_relu (Activatio (None, 30, 30, 256)  0           scale4b9_branch2b[0][0]          
__________________________________________________________________________________________________
res4b9_branch2c (Conv2D)        (None, 30, 30, 1024) 262144      res4b9_branch2b_relu[0][0]       
__________________________________________________________________________________________________
bn4b9_branch2c (BatchNormalizat (None, 30, 30, 1024) 4096        res4b9_branch2c[0][0]            
__________________________________________________________________________________________________
scale4b9_branch2c (Scale)       (None, 30, 30, 1024) 2048        bn4b9_branch2c[0][0]             
__________________________________________________________________________________________________
res4b9 (Add)                    (None, 30, 30, 1024) 0           scale4b9_branch2c[0][0]          
                                                                 res4b8_relu[0][0]                
__________________________________________________________________________________________________
res4b9_relu (Activation)        (None, 30, 30, 1024) 0           res4b9[0][0]                     
__________________________________________________________________________________________________
res4b10_branch2a (Conv2D)       (None, 30, 30, 256)  262144      res4b9_relu[0][0]                
__________________________________________________________________________________________________
bn4b10_branch2a (BatchNormaliza (None, 30, 30, 256)  1024        res4b10_branch2a[0][0]           
__________________________________________________________________________________________________
scale4b10_branch2a (Scale)      (None, 30, 30, 256)  512         bn4b10_branch2a[0][0]            
__________________________________________________________________________________________________
res4b10_branch2a_relu (Activati (None, 30, 30, 256)  0           scale4b10_branch2a[0][0]         
__________________________________________________________________________________________________
res4b10_branch2b_zeropadding (Z (None, 32, 32, 256)  0           res4b10_branch2a_relu[0][0]      
__________________________________________________________________________________________________
res4b10_branch2b (Conv2D)       (None, 30, 30, 256)  589824      res4b10_branch2b_zeropadding[0][0
__________________________________________________________________________________________________
bn4b10_branch2b (BatchNormaliza (None, 30, 30, 256)  1024        res4b10_branch2b[0][0]           
__________________________________________________________________________________________________
scale4b10_branch2b (Scale)      (None, 30, 30, 256)  512         bn4b10_branch2b[0][0]            
__________________________________________________________________________________________________
res4b10_branch2b_relu (Activati (None, 30, 30, 256)  0           scale4b10_branch2b[0][0]         
__________________________________________________________________________________________________
res4b10_branch2c (Conv2D)       (None, 30, 30, 1024) 262144      res4b10_branch2b_relu[0][0]      
__________________________________________________________________________________________________
bn4b10_branch2c (BatchNormaliza (None, 30, 30, 1024) 4096        res4b10_branch2c[0][0]           
__________________________________________________________________________________________________
scale4b10_branch2c (Scale)      (None, 30, 30, 1024) 2048        bn4b10_branch2c[0][0]            
__________________________________________________________________________________________________
res4b10 (Add)                   (None, 30, 30, 1024) 0           scale4b10_branch2c[0][0]         
                                                                 res4b9_relu[0][0]                
__________________________________________________________________________________________________
res4b10_relu (Activation)       (None, 30, 30, 1024) 0           res4b10[0][0]                    
__________________________________________________________________________________________________
res4b11_branch2a (Conv2D)       (None, 30, 30, 256)  262144      res4b10_relu[0][0]               
__________________________________________________________________________________________________
bn4b11_branch2a (BatchNormaliza (None, 30, 30, 256)  1024        res4b11_branch2a[0][0]           
__________________________________________________________________________________________________
scale4b11_branch2a (Scale)      (None, 30, 30, 256)  512         bn4b11_branch2a[0][0]            
__________________________________________________________________________________________________
res4b11_branch2a_relu (Activati (None, 30, 30, 256)  0           scale4b11_branch2a[0][0]         
__________________________________________________________________________________________________
res4b11_branch2b_zeropadding (Z (None, 32, 32, 256)  0           res4b11_branch2a_relu[0][0]      
__________________________________________________________________________________________________
res4b11_branch2b (Conv2D)       (None, 30, 30, 256)  589824      res4b11_branch2b_zeropadding[0][0
__________________________________________________________________________________________________
bn4b11_branch2b (BatchNormaliza (None, 30, 30, 256)  1024        res4b11_branch2b[0][0]           
__________________________________________________________________________________________________
scale4b11_branch2b (Scale)      (None, 30, 30, 256)  512         bn4b11_branch2b[0][0]            
__________________________________________________________________________________________________
res4b11_branch2b_relu (Activati (None, 30, 30, 256)  0           scale4b11_branch2b[0][0]         
__________________________________________________________________________________________________
res4b11_branch2c (Conv2D)       (None, 30, 30, 1024) 262144      res4b11_branch2b_relu[0][0]      
__________________________________________________________________________________________________
bn4b11_branch2c (BatchNormaliza (None, 30, 30, 1024) 4096        res4b11_branch2c[0][0]           
__________________________________________________________________________________________________
scale4b11_branch2c (Scale)      (None, 30, 30, 1024) 2048        bn4b11_branch2c[0][0]            
__________________________________________________________________________________________________
res4b11 (Add)                   (None, 30, 30, 1024) 0           scale4b11_branch2c[0][0]         
                                                                 res4b10_relu[0][0]               
__________________________________________________________________________________________________
res4b11_relu (Activation)       (None, 30, 30, 1024) 0           res4b11[0][0]                    
__________________________________________________________________________________________________
res4b12_branch2a (Conv2D)       (None, 30, 30, 256)  262144      res4b11_relu[0][0]               
__________________________________________________________________________________________________
bn4b12_branch2a (BatchNormaliza (None, 30, 30, 256)  1024        res4b12_branch2a[0][0]           
__________________________________________________________________________________________________
scale4b12_branch2a (Scale)      (None, 30, 30, 256)  512         bn4b12_branch2a[0][0]            
__________________________________________________________________________________________________
res4b12_branch2a_relu (Activati (None, 30, 30, 256)  0           scale4b12_branch2a[0][0]         
__________________________________________________________________________________________________
res4b12_branch2b_zeropadding (Z (None, 32, 32, 256)  0           res4b12_branch2a_relu[0][0]      
__________________________________________________________________________________________________
res4b12_branch2b (Conv2D)       (None, 30, 30, 256)  589824      res4b12_branch2b_zeropadding[0][0
__________________________________________________________________________________________________
bn4b12_branch2b (BatchNormaliza (None, 30, 30, 256)  1024        res4b12_branch2b[0][0]           
__________________________________________________________________________________________________
scale4b12_branch2b (Scale)      (None, 30, 30, 256)  512         bn4b12_branch2b[0][0]            
__________________________________________________________________________________________________
res4b12_branch2b_relu (Activati (None, 30, 30, 256)  0           scale4b12_branch2b[0][0]         
__________________________________________________________________________________________________
res4b12_branch2c (Conv2D)       (None, 30, 30, 1024) 262144      res4b12_branch2b_relu[0][0]      
__________________________________________________________________________________________________
bn4b12_branch2c (BatchNormaliza (None, 30, 30, 1024) 4096        res4b12_branch2c[0][0]           
__________________________________________________________________________________________________
scale4b12_branch2c (Scale)      (None, 30, 30, 1024) 2048        bn4b12_branch2c[0][0]            
__________________________________________________________________________________________________
res4b12 (Add)                   (None, 30, 30, 1024) 0           scale4b12_branch2c[0][0]         
                                                                 res4b11_relu[0][0]               
__________________________________________________________________________________________________
res4b12_relu (Activation)       (None, 30, 30, 1024) 0           res4b12[0][0]                    
__________________________________________________________________________________________________
res4b13_branch2a (Conv2D)       (None, 30, 30, 256)  262144      res4b12_relu[0][0]               
__________________________________________________________________________________________________
bn4b13_branch2a (BatchNormaliza (None, 30, 30, 256)  1024        res4b13_branch2a[0][0]           
__________________________________________________________________________________________________
scale4b13_branch2a (Scale)      (None, 30, 30, 256)  512         bn4b13_branch2a[0][0]            
__________________________________________________________________________________________________
res4b13_branch2a_relu (Activati (None, 30, 30, 256)  0           scale4b13_branch2a[0][0]         
__________________________________________________________________________________________________
res4b13_branch2b_zeropadding (Z (None, 32, 32, 256)  0           res4b13_branch2a_relu[0][0]      
__________________________________________________________________________________________________
res4b13_branch2b (Conv2D)       (None, 30, 30, 256)  589824      res4b13_branch2b_zeropadding[0][0
__________________________________________________________________________________________________
bn4b13_branch2b (BatchNormaliza (None, 30, 30, 256)  1024        res4b13_branch2b[0][0]           
__________________________________________________________________________________________________
scale4b13_branch2b (Scale)      (None, 30, 30, 256)  512         bn4b13_branch2b[0][0]            
__________________________________________________________________________________________________
res4b13_branch2b_relu (Activati (None, 30, 30, 256)  0           scale4b13_branch2b[0][0]         
__________________________________________________________________________________________________
res4b13_branch2c (Conv2D)       (None, 30, 30, 1024) 262144      res4b13_branch2b_relu[0][0]      
__________________________________________________________________________________________________
bn4b13_branch2c (BatchNormaliza (None, 30, 30, 1024) 4096        res4b13_branch2c[0][0]           
__________________________________________________________________________________________________
scale4b13_branch2c (Scale)      (None, 30, 30, 1024) 2048        bn4b13_branch2c[0][0]            
__________________________________________________________________________________________________
res4b13 (Add)                   (None, 30, 30, 1024) 0           scale4b13_branch2c[0][0]         
                                                                 res4b12_relu[0][0]               
__________________________________________________________________________________________________
res4b13_relu (Activation)       (None, 30, 30, 1024) 0           res4b13[0][0]                    
__________________________________________________________________________________________________
res4b14_branch2a (Conv2D)       (None, 30, 30, 256)  262144      res4b13_relu[0][0]               
__________________________________________________________________________________________________
bn4b14_branch2a (BatchNormaliza (None, 30, 30, 256)  1024        res4b14_branch2a[0][0]           
__________________________________________________________________________________________________
scale4b14_branch2a (Scale)      (None, 30, 30, 256)  512         bn4b14_branch2a[0][0]            
__________________________________________________________________________________________________
res4b14_branch2a_relu (Activati (None, 30, 30, 256)  0           scale4b14_branch2a[0][0]         
__________________________________________________________________________________________________
res4b14_branch2b_zeropadding (Z (None, 32, 32, 256)  0           res4b14_branch2a_relu[0][0]      
__________________________________________________________________________________________________
res4b14_branch2b (Conv2D)       (None, 30, 30, 256)  589824      res4b14_branch2b_zeropadding[0][0
__________________________________________________________________________________________________
bn4b14_branch2b (BatchNormaliza (None, 30, 30, 256)  1024        res4b14_branch2b[0][0]           
__________________________________________________________________________________________________
scale4b14_branch2b (Scale)      (None, 30, 30, 256)  512         bn4b14_branch2b[0][0]            
__________________________________________________________________________________________________
res4b14_branch2b_relu (Activati (None, 30, 30, 256)  0           scale4b14_branch2b[0][0]         
__________________________________________________________________________________________________
res4b14_branch2c (Conv2D)       (None, 30, 30, 1024) 262144      res4b14_branch2b_relu[0][0]      
__________________________________________________________________________________________________
bn4b14_branch2c (BatchNormaliza (None, 30, 30, 1024) 4096        res4b14_branch2c[0][0]           
__________________________________________________________________________________________________
scale4b14_branch2c (Scale)      (None, 30, 30, 1024) 2048        bn4b14_branch2c[0][0]            
__________________________________________________________________________________________________
res4b14 (Add)                   (None, 30, 30, 1024) 0           scale4b14_branch2c[0][0]         
                                                                 res4b13_relu[0][0]               
__________________________________________________________________________________________________
res4b14_relu (Activation)       (None, 30, 30, 1024) 0           res4b14[0][0]                    
__________________________________________________________________________________________________
res4b15_branch2a (Conv2D)       (None, 30, 30, 256)  262144      res4b14_relu[0][0]               
__________________________________________________________________________________________________
bn4b15_branch2a (BatchNormaliza (None, 30, 30, 256)  1024        res4b15_branch2a[0][0]           
__________________________________________________________________________________________________
scale4b15_branch2a (Scale)      (None, 30, 30, 256)  512         bn4b15_branch2a[0][0]            
__________________________________________________________________________________________________
res4b15_branch2a_relu (Activati (None, 30, 30, 256)  0           scale4b15_branch2a[0][0]         
__________________________________________________________________________________________________
res4b15_branch2b_zeropadding (Z (None, 32, 32, 256)  0           res4b15_branch2a_relu[0][0]      
__________________________________________________________________________________________________
res4b15_branch2b (Conv2D)       (None, 30, 30, 256)  589824      res4b15_branch2b_zeropadding[0][0
__________________________________________________________________________________________________
bn4b15_branch2b (BatchNormaliza (None, 30, 30, 256)  1024        res4b15_branch2b[0][0]           
__________________________________________________________________________________________________
scale4b15_branch2b (Scale)      (None, 30, 30, 256)  512         bn4b15_branch2b[0][0]            
__________________________________________________________________________________________________
res4b15_branch2b_relu (Activati (None, 30, 30, 256)  0           scale4b15_branch2b[0][0]         
__________________________________________________________________________________________________
res4b15_branch2c (Conv2D)       (None, 30, 30, 1024) 262144      res4b15_branch2b_relu[0][0]      
__________________________________________________________________________________________________
bn4b15_branch2c (BatchNormaliza (None, 30, 30, 1024) 4096        res4b15_branch2c[0][0]           
__________________________________________________________________________________________________
scale4b15_branch2c (Scale)      (None, 30, 30, 1024) 2048        bn4b15_branch2c[0][0]            
__________________________________________________________________________________________________
res4b15 (Add)                   (None, 30, 30, 1024) 0           scale4b15_branch2c[0][0]         
                                                                 res4b14_relu[0][0]               
__________________________________________________________________________________________________
res4b15_relu (Activation)       (None, 30, 30, 1024) 0           res4b15[0][0]                    
__________________________________________________________________________________________________
res4b16_branch2a (Conv2D)       (None, 30, 30, 256)  262144      res4b15_relu[0][0]               
__________________________________________________________________________________________________
bn4b16_branch2a (BatchNormaliza (None, 30, 30, 256)  1024        res4b16_branch2a[0][0]           
__________________________________________________________________________________________________
scale4b16_branch2a (Scale)      (None, 30, 30, 256)  512         bn4b16_branch2a[0][0]            
__________________________________________________________________________________________________
res4b16_branch2a_relu (Activati (None, 30, 30, 256)  0           scale4b16_branch2a[0][0]         
__________________________________________________________________________________________________
res4b16_branch2b_zeropadding (Z (None, 32, 32, 256)  0           res4b16_branch2a_relu[0][0]      
__________________________________________________________________________________________________
res4b16_branch2b (Conv2D)       (None, 30, 30, 256)  589824      res4b16_branch2b_zeropadding[0][0
__________________________________________________________________________________________________
bn4b16_branch2b (BatchNormaliza (None, 30, 30, 256)  1024        res4b16_branch2b[0][0]           
__________________________________________________________________________________________________
scale4b16_branch2b (Scale)      (None, 30, 30, 256)  512         bn4b16_branch2b[0][0]            
__________________________________________________________________________________________________
res4b16_branch2b_relu (Activati (None, 30, 30, 256)  0           scale4b16_branch2b[0][0]         
__________________________________________________________________________________________________
res4b16_branch2c (Conv2D)       (None, 30, 30, 1024) 262144      res4b16_branch2b_relu[0][0]      
__________________________________________________________________________________________________
bn4b16_branch2c (BatchNormaliza (None, 30, 30, 1024) 4096        res4b16_branch2c[0][0]           
__________________________________________________________________________________________________
scale4b16_branch2c (Scale)      (None, 30, 30, 1024) 2048        bn4b16_branch2c[0][0]            
__________________________________________________________________________________________________
res4b16 (Add)                   (None, 30, 30, 1024) 0           scale4b16_branch2c[0][0]         
                                                                 res4b15_relu[0][0]               
__________________________________________________________________________________________________
res4b16_relu (Activation)       (None, 30, 30, 1024) 0           res4b16[0][0]                    
__________________________________________________________________________________________________
res4b17_branch2a (Conv2D)       (None, 30, 30, 256)  262144      res4b16_relu[0][0]               
__________________________________________________________________________________________________
bn4b17_branch2a (BatchNormaliza (None, 30, 30, 256)  1024        res4b17_branch2a[0][0]           
__________________________________________________________________________________________________
scale4b17_branch2a (Scale)      (None, 30, 30, 256)  512         bn4b17_branch2a[0][0]            
__________________________________________________________________________________________________
res4b17_branch2a_relu (Activati (None, 30, 30, 256)  0           scale4b17_branch2a[0][0]         
__________________________________________________________________________________________________
res4b17_branch2b_zeropadding (Z (None, 32, 32, 256)  0           res4b17_branch2a_relu[0][0]      
__________________________________________________________________________________________________
res4b17_branch2b (Conv2D)       (None, 30, 30, 256)  589824      res4b17_branch2b_zeropadding[0][0
__________________________________________________________________________________________________
bn4b17_branch2b (BatchNormaliza (None, 30, 30, 256)  1024        res4b17_branch2b[0][0]           
__________________________________________________________________________________________________
scale4b17_branch2b (Scale)      (None, 30, 30, 256)  512         bn4b17_branch2b[0][0]            
__________________________________________________________________________________________________
res4b17_branch2b_relu (Activati (None, 30, 30, 256)  0           scale4b17_branch2b[0][0]         
__________________________________________________________________________________________________
res4b17_branch2c (Conv2D)       (None, 30, 30, 1024) 262144      res4b17_branch2b_relu[0][0]      
__________________________________________________________________________________________________
bn4b17_branch2c (BatchNormaliza (None, 30, 30, 1024) 4096        res4b17_branch2c[0][0]           
__________________________________________________________________________________________________
scale4b17_branch2c (Scale)      (None, 30, 30, 1024) 2048        bn4b17_branch2c[0][0]            
__________________________________________________________________________________________________
res4b17 (Add)                   (None, 30, 30, 1024) 0           scale4b17_branch2c[0][0]         
                                                                 res4b16_relu[0][0]               
__________________________________________________________________________________________________
res4b17_relu (Activation)       (None, 30, 30, 1024) 0           res4b17[0][0]                    
__________________________________________________________________________________________________
res4b18_branch2a (Conv2D)       (None, 30, 30, 256)  262144      res4b17_relu[0][0]               
__________________________________________________________________________________________________
bn4b18_branch2a (BatchNormaliza (None, 30, 30, 256)  1024        res4b18_branch2a[0][0]           
__________________________________________________________________________________________________
scale4b18_branch2a (Scale)      (None, 30, 30, 256)  512         bn4b18_branch2a[0][0]            
__________________________________________________________________________________________________
res4b18_branch2a_relu (Activati (None, 30, 30, 256)  0           scale4b18_branch2a[0][0]         
__________________________________________________________________________________________________
res4b18_branch2b_zeropadding (Z (None, 32, 32, 256)  0           res4b18_branch2a_relu[0][0]      
__________________________________________________________________________________________________
res4b18_branch2b (Conv2D)       (None, 30, 30, 256)  589824      res4b18_branch2b_zeropadding[0][0
__________________________________________________________________________________________________
bn4b18_branch2b (BatchNormaliza (None, 30, 30, 256)  1024        res4b18_branch2b[0][0]           
__________________________________________________________________________________________________
scale4b18_branch2b (Scale)      (None, 30, 30, 256)  512         bn4b18_branch2b[0][0]            
__________________________________________________________________________________________________
res4b18_branch2b_relu (Activati (None, 30, 30, 256)  0           scale4b18_branch2b[0][0]         
__________________________________________________________________________________________________
res4b18_branch2c (Conv2D)       (None, 30, 30, 1024) 262144      res4b18_branch2b_relu[0][0]      
__________________________________________________________________________________________________
bn4b18_branch2c (BatchNormaliza (None, 30, 30, 1024) 4096        res4b18_branch2c[0][0]           
__________________________________________________________________________________________________
scale4b18_branch2c (Scale)      (None, 30, 30, 1024) 2048        bn4b18_branch2c[0][0]            
__________________________________________________________________________________________________
res4b18 (Add)                   (None, 30, 30, 1024) 0           scale4b18_branch2c[0][0]         
                                                                 res4b17_relu[0][0]               
__________________________________________________________________________________________________
res4b18_relu (Activation)       (None, 30, 30, 1024) 0           res4b18[0][0]                    
__________________________________________________________________________________________________
res4b19_branch2a (Conv2D)       (None, 30, 30, 256)  262144      res4b18_relu[0][0]               
__________________________________________________________________________________________________
bn4b19_branch2a (BatchNormaliza (None, 30, 30, 256)  1024        res4b19_branch2a[0][0]           
__________________________________________________________________________________________________
scale4b19_branch2a (Scale)      (None, 30, 30, 256)  512         bn4b19_branch2a[0][0]            
__________________________________________________________________________________________________
res4b19_branch2a_relu (Activati (None, 30, 30, 256)  0           scale4b19_branch2a[0][0]         
__________________________________________________________________________________________________
res4b19_branch2b_zeropadding (Z (None, 32, 32, 256)  0           res4b19_branch2a_relu[0][0]      
__________________________________________________________________________________________________
res4b19_branch2b (Conv2D)       (None, 30, 30, 256)  589824      res4b19_branch2b_zeropadding[0][0
__________________________________________________________________________________________________
bn4b19_branch2b (BatchNormaliza (None, 30, 30, 256)  1024        res4b19_branch2b[0][0]           
__________________________________________________________________________________________________
scale4b19_branch2b (Scale)      (None, 30, 30, 256)  512         bn4b19_branch2b[0][0]            
__________________________________________________________________________________________________
res4b19_branch2b_relu (Activati (None, 30, 30, 256)  0           scale4b19_branch2b[0][0]         
__________________________________________________________________________________________________
res4b19_branch2c (Conv2D)       (None, 30, 30, 1024) 262144      res4b19_branch2b_relu[0][0]      
__________________________________________________________________________________________________
bn4b19_branch2c (BatchNormaliza (None, 30, 30, 1024) 4096        res4b19_branch2c[0][0]           
__________________________________________________________________________________________________
scale4b19_branch2c (Scale)      (None, 30, 30, 1024) 2048        bn4b19_branch2c[0][0]            
__________________________________________________________________________________________________
res4b19 (Add)                   (None, 30, 30, 1024) 0           scale4b19_branch2c[0][0]         
                                                                 res4b18_relu[0][0]               
__________________________________________________________________________________________________
res4b19_relu (Activation)       (None, 30, 30, 1024) 0           res4b19[0][0]                    
__________________________________________________________________________________________________
res4b20_branch2a (Conv2D)       (None, 30, 30, 256)  262144      res4b19_relu[0][0]               
__________________________________________________________________________________________________
bn4b20_branch2a (BatchNormaliza (None, 30, 30, 256)  1024        res4b20_branch2a[0][0]           
__________________________________________________________________________________________________
scale4b20_branch2a (Scale)      (None, 30, 30, 256)  512         bn4b20_branch2a[0][0]            
__________________________________________________________________________________________________
res4b20_branch2a_relu (Activati (None, 30, 30, 256)  0           scale4b20_branch2a[0][0]         
__________________________________________________________________________________________________
res4b20_branch2b_zeropadding (Z (None, 32, 32, 256)  0           res4b20_branch2a_relu[0][0]      
__________________________________________________________________________________________________
res4b20_branch2b (Conv2D)       (None, 30, 30, 256)  589824      res4b20_branch2b_zeropadding[0][0
__________________________________________________________________________________________________
bn4b20_branch2b (BatchNormaliza (None, 30, 30, 256)  1024        res4b20_branch2b[0][0]           
__________________________________________________________________________________________________
scale4b20_branch2b (Scale)      (None, 30, 30, 256)  512         bn4b20_branch2b[0][0]            
__________________________________________________________________________________________________
res4b20_branch2b_relu (Activati (None, 30, 30, 256)  0           scale4b20_branch2b[0][0]         
__________________________________________________________________________________________________
res4b20_branch2c (Conv2D)       (None, 30, 30, 1024) 262144      res4b20_branch2b_relu[0][0]      
__________________________________________________________________________________________________
bn4b20_branch2c (BatchNormaliza (None, 30, 30, 1024) 4096        res4b20_branch2c[0][0]           
__________________________________________________________________________________________________
scale4b20_branch2c (Scale)      (None, 30, 30, 1024) 2048        bn4b20_branch2c[0][0]            
__________________________________________________________________________________________________
res4b20 (Add)                   (None, 30, 30, 1024) 0           scale4b20_branch2c[0][0]         
                                                                 res4b19_relu[0][0]               
__________________________________________________________________________________________________
res4b20_relu (Activation)       (None, 30, 30, 1024) 0           res4b20[0][0]                    
__________________________________________________________________________________________________
res4b21_branch2a (Conv2D)       (None, 30, 30, 256)  262144      res4b20_relu[0][0]               
__________________________________________________________________________________________________
bn4b21_branch2a (BatchNormaliza (None, 30, 30, 256)  1024        res4b21_branch2a[0][0]           
__________________________________________________________________________________________________
scale4b21_branch2a (Scale)      (None, 30, 30, 256)  512         bn4b21_branch2a[0][0]            
__________________________________________________________________________________________________
res4b21_branch2a_relu (Activati (None, 30, 30, 256)  0           scale4b21_branch2a[0][0]         
__________________________________________________________________________________________________
res4b21_branch2b_zeropadding (Z (None, 32, 32, 256)  0           res4b21_branch2a_relu[0][0]      
__________________________________________________________________________________________________
res4b21_branch2b (Conv2D)       (None, 30, 30, 256)  589824      res4b21_branch2b_zeropadding[0][0
__________________________________________________________________________________________________
bn4b21_branch2b (BatchNormaliza (None, 30, 30, 256)  1024        res4b21_branch2b[0][0]           
__________________________________________________________________________________________________
scale4b21_branch2b (Scale)      (None, 30, 30, 256)  512         bn4b21_branch2b[0][0]            
__________________________________________________________________________________________________
res4b21_branch2b_relu (Activati (None, 30, 30, 256)  0           scale4b21_branch2b[0][0]         
__________________________________________________________________________________________________
res4b21_branch2c (Conv2D)       (None, 30, 30, 1024) 262144      res4b21_branch2b_relu[0][0]      
__________________________________________________________________________________________________
bn4b21_branch2c (BatchNormaliza (None, 30, 30, 1024) 4096        res4b21_branch2c[0][0]           
__________________________________________________________________________________________________
scale4b21_branch2c (Scale)      (None, 30, 30, 1024) 2048        bn4b21_branch2c[0][0]            
__________________________________________________________________________________________________
res4b21 (Add)                   (None, 30, 30, 1024) 0           scale4b21_branch2c[0][0]         
                                                                 res4b20_relu[0][0]               
__________________________________________________________________________________________________
res4b21_relu (Activation)       (None, 30, 30, 1024) 0           res4b21[0][0]                    
__________________________________________________________________________________________________
res4b22_branch2a (Conv2D)       (None, 30, 30, 256)  262144      res4b21_relu[0][0]               
__________________________________________________________________________________________________
bn4b22_branch2a (BatchNormaliza (None, 30, 30, 256)  1024        res4b22_branch2a[0][0]           
__________________________________________________________________________________________________
scale4b22_branch2a (Scale)      (None, 30, 30, 256)  512         bn4b22_branch2a[0][0]            
__________________________________________________________________________________________________
res4b22_branch2a_relu (Activati (None, 30, 30, 256)  0           scale4b22_branch2a[0][0]         
__________________________________________________________________________________________________
res4b22_branch2b_zeropadding (Z (None, 32, 32, 256)  0           res4b22_branch2a_relu[0][0]      
__________________________________________________________________________________________________
res4b22_branch2b (Conv2D)       (None, 30, 30, 256)  589824      res4b22_branch2b_zeropadding[0][0
__________________________________________________________________________________________________
bn4b22_branch2b (BatchNormaliza (None, 30, 30, 256)  1024        res4b22_branch2b[0][0]           
__________________________________________________________________________________________________
scale4b22_branch2b (Scale)      (None, 30, 30, 256)  512         bn4b22_branch2b[0][0]            
__________________________________________________________________________________________________
res4b22_branch2b_relu (Activati (None, 30, 30, 256)  0           scale4b22_branch2b[0][0]         
__________________________________________________________________________________________________
res4b22_branch2c (Conv2D)       (None, 30, 30, 1024) 262144      res4b22_branch2b_relu[0][0]      
__________________________________________________________________________________________________
bn4b22_branch2c (BatchNormaliza (None, 30, 30, 1024) 4096        res4b22_branch2c[0][0]           
__________________________________________________________________________________________________
scale4b22_branch2c (Scale)      (None, 30, 30, 1024) 2048        bn4b22_branch2c[0][0]            
__________________________________________________________________________________________________
res4b22 (Add)                   (None, 30, 30, 1024) 0           scale4b22_branch2c[0][0]         
                                                                 res4b21_relu[0][0]               
__________________________________________________________________________________________________
res4b22_relu (Activation)       (None, 30, 30, 1024) 0           res4b22[0][0]                    
__________________________________________________________________________________________________
res5a_branch2a (Conv2D)         (None, 15, 15, 512)  524288      res4b22_relu[0][0]               
__________________________________________________________________________________________________
bn5a_branch2a (BatchNormalizati (None, 15, 15, 512)  2048        res5a_branch2a[0][0]             
__________________________________________________________________________________________________
scale5a_branch2a (Scale)        (None, 15, 15, 512)  1024        bn5a_branch2a[0][0]              
__________________________________________________________________________________________________
res5a_branch2a_relu (Activation (None, 15, 15, 512)  0           scale5a_branch2a[0][0]           
__________________________________________________________________________________________________
res5a_branch2b_zeropadding (Zer (None, 17, 17, 512)  0           res5a_branch2a_relu[0][0]        
__________________________________________________________________________________________________
res5a_branch2b (Conv2D)         (None, 15, 15, 512)  2359296     res5a_branch2b_zeropadding[0][0] 
__________________________________________________________________________________________________
bn5a_branch2b (BatchNormalizati (None, 15, 15, 512)  2048        res5a_branch2b[0][0]             
__________________________________________________________________________________________________
scale5a_branch2b (Scale)        (None, 15, 15, 512)  1024        bn5a_branch2b[0][0]              
__________________________________________________________________________________________________
res5a_branch2b_relu (Activation (None, 15, 15, 512)  0           scale5a_branch2b[0][0]           
__________________________________________________________________________________________________
res5a_branch2c (Conv2D)         (None, 15, 15, 2048) 1048576     res5a_branch2b_relu[0][0]        
__________________________________________________________________________________________________
res5a_branch1 (Conv2D)          (None, 15, 15, 2048) 2097152     res4b22_relu[0][0]               
__________________________________________________________________________________________________
bn5a_branch2c (BatchNormalizati (None, 15, 15, 2048) 8192        res5a_branch2c[0][0]             
__________________________________________________________________________________________________
bn5a_branch1 (BatchNormalizatio (None, 15, 15, 2048) 8192        res5a_branch1[0][0]              
__________________________________________________________________________________________________
scale5a_branch2c (Scale)        (None, 15, 15, 2048) 4096        bn5a_branch2c[0][0]              
__________________________________________________________________________________________________
scale5a_branch1 (Scale)         (None, 15, 15, 2048) 4096        bn5a_branch1[0][0]               
__________________________________________________________________________________________________
res5a (Add)                     (None, 15, 15, 2048) 0           scale5a_branch2c[0][0]           
                                                                 scale5a_branch1[0][0]            
__________________________________________________________________________________________________
res5a_relu (Activation)         (None, 15, 15, 2048) 0           res5a[0][0]                      
__________________________________________________________________________________________________
res5b_branch2a (Conv2D)         (None, 15, 15, 512)  1048576     res5a_relu[0][0]                 
__________________________________________________________________________________________________
bn5b_branch2a (BatchNormalizati (None, 15, 15, 512)  2048        res5b_branch2a[0][0]             
__________________________________________________________________________________________________
scale5b_branch2a (Scale)        (None, 15, 15, 512)  1024        bn5b_branch2a[0][0]              
__________________________________________________________________________________________________
res5b_branch2a_relu (Activation (None, 15, 15, 512)  0           scale5b_branch2a[0][0]           
__________________________________________________________________________________________________
res5b_branch2b_zeropadding (Zer (None, 17, 17, 512)  0           res5b_branch2a_relu[0][0]        
__________________________________________________________________________________________________
res5b_branch2b (Conv2D)         (None, 15, 15, 512)  2359296     res5b_branch2b_zeropadding[0][0] 
__________________________________________________________________________________________________
bn5b_branch2b (BatchNormalizati (None, 15, 15, 512)  2048        res5b_branch2b[0][0]             
__________________________________________________________________________________________________
scale5b_branch2b (Scale)        (None, 15, 15, 512)  1024        bn5b_branch2b[0][0]              
__________________________________________________________________________________________________
res5b_branch2b_relu (Activation (None, 15, 15, 512)  0           scale5b_branch2b[0][0]           
__________________________________________________________________________________________________
res5b_branch2c (Conv2D)         (None, 15, 15, 2048) 1048576     res5b_branch2b_relu[0][0]        
__________________________________________________________________________________________________
bn5b_branch2c (BatchNormalizati (None, 15, 15, 2048) 8192        res5b_branch2c[0][0]             
__________________________________________________________________________________________________
scale5b_branch2c (Scale)        (None, 15, 15, 2048) 4096        bn5b_branch2c[0][0]              
__________________________________________________________________________________________________
res5b (Add)                     (None, 15, 15, 2048) 0           scale5b_branch2c[0][0]           
                                                                 res5a_relu[0][0]                 
__________________________________________________________________________________________________
res5b_relu (Activation)         (None, 15, 15, 2048) 0           res5b[0][0]                      
__________________________________________________________________________________________________
res5c_branch2a (Conv2D)         (None, 15, 15, 512)  1048576     res5b_relu[0][0]                 
__________________________________________________________________________________________________
bn5c_branch2a (BatchNormalizati (None, 15, 15, 512)  2048        res5c_branch2a[0][0]             
__________________________________________________________________________________________________2018-08-30 18:45:06.384390: W tensorflow/core/common_runtime/bfc_allocator.cc:217] Allocator (GPU_0_bfc) ran out of memory trying to allocate 2.17GiB. The caller indicates that this is not a failure, but may mean that there could be performance gains if more memory is available.
…
2018-08-30 18:45:06.408585: W tensorflow/core/common_runtime/bfc_allocator.cc:217] Allocator (GPU_0_bfc) ran out of memory trying to allocate 1.10GiB. The caller indicates that this is not a failure, but may mean that there could be performance gains if more memory is available.
2018-08-30 18:45:06.457609: W tensorflow/core/common_runtime/bfc_allocator.cc:217] Allocator (GPU_0_bfc) ran out of memory trying to allocate 551.03MiB. The caller indicates that this is not a failure, but may mean that there could be performance gains if more memory is available.
2018-08-30 18:45:06.462759: W tensorflow/core/common_runtime/bfc_allocator.cc:217] Allocator (GPU_0_bfc) ran out of memory trying to allocate 2.13GiB. The caller indicates that this is not a failure, but may mean that there could be performance gains if more memory is available.

scale5c_branch2a (Scale)        (None, 15, 15, 512)  1024        bn5c_branch2a[0][0]              
__________________________________________________________________________________________________
res5c_branch2a_relu (Activation (None, 15, 15, 512)  0           scale5c_branch2a[0][0]           
__________________________________________________________________________________________________
res5c_branch2b_zeropadding (Zer (None, 17, 17, 512)  0           res5c_branch2a_relu[0][0]        
__________________________________________________________________________________________________
res5c_branch2b (Conv2D)         (None, 15, 15, 512)  2359296     res5c_branch2b_zeropadding[0][0] 
__________________________________________________________________________________________________
bn5c_branch2b (BatchNormalizati (None, 15, 15, 512)  2048        res5c_branch2b[0][0]             
__________________________________________________________________________________________________
scale5c_branch2b (Scale)        (None, 15, 15, 512)  1024        bn5c_branch2b[0][0]              
__________________________________________________________________________________________________
res5c_branch2b_relu (Activation (None, 15, 15, 512)  0           scale5c_branch2b[0][0]           
__________________________________________________________________________________________________
res5c_branch2c (Conv2D)         (None, 15, 15, 2048) 1048576     res5c_branch2b_relu[0][0]        
__________________________________________________________________________________________________
bn5c_branch2c (BatchNormalizati (None, 15, 15, 2048) 8192        res5c_branch2c[0][0]             
__________________________________________________________________________________________________
scale5c_branch2c (Scale)        (None, 15, 15, 2048) 4096        bn5c_branch2c[0][0]              
__________________________________________________________________________________________________
res5c (Add)                     (None, 15, 15, 2048) 0           scale5c_branch2c[0][0]           
                                                                 res5b_relu[0][0]                 
__________________________________________________________________________________________________
res5c_relu (Activation)         (None, 15, 15, 2048) 0           res5c[0][0]                      
__________________________________________________________________________________________________
avg_pool (AveragePooling2D)     (None, 2, 2, 2048)   0           res5c_relu[0][0]                 
__________________________________________________________________________________________________
flatten_1 (Flatten)             (None, 8192)         0           avg_pool[0][0]                   
__________________________________________________________________________________________________
fc8 (Dense)                     (None, 103)          843879      flatten_1[0][0]                  
==================================================================================================
Total params: 43,554,727
Trainable params: 43,449,383
Non-trainable params: 105,344
__________________________________________________________________________________________________
None
Epoch 1/8

    1/11020 [..............................] - ETA: 12:45:07 - loss: 0.2954 - top_3_accuracy: 1.0000 - acc: 0.8750
…
